…
[31m-        1344  Unknown     Unknown        0       7    2007       New       Partial  
[31m-        513   Unknown     Unknown        0       6    2007        WD        Normal  
[31m-        258   Unknown     Unknown        0       5    2008        WD        Normal  
[31m-        
[31m-        [5 rows x 78 columns]

[0m[34m## modified /cells/9/outputs/0/text:[0m
[36m@@ -5,21 +5,15 @@[m [mModel: "sequential"[m
 _________________________________________________________________[m
 Layer (type)                 Output Shape              Param #   [m
 =================================================================[m
[31m-dense (Dense)                (None, 60)                4740      [m
[32m+[m[32mdense (Dense)                (None, 10)                790[m[41m       [m
 _________________________________________________________________[m
[31m-dense_1 (Dense)              (None, 60)                3660      [m
[32m+[m[32mdense_1 (Dense)              (None, 10)                110[m[41m       [m
 _________________________________________________________________[m
[31m-dense_2 (Dense)              (None, 30)                1830      [m
[32m+[m[32mdense_2 (Dense)              (None, 10)                110[m[41m       [m
 _________________________________________________________________[m
[31m-dense_3 (Dense)              (None, 30)                930       [m
[31m-_________________________________________________________________[m
[31m-dense_4 (Dense)              (None, 15)                465       [m
[31m-_________________________________________________________________[m
[31m-dense_5 (Dense)              (None, 15)                240       [m
[31m-_________________________________________________________________[m
[31m-dense_6 (Dense)              (None, 1)                 16        [m
[32m+[m[32mdense_3 (Dense)              (None, 1)                 11[m[41m        [m
 =================================================================[m
[31m-Total params: 11,881[m
[31m-Trainable params: 11,881[m
[32m+[m[32mTotal params: 1,021[m
[32m+[m[32mTrainable params: 1,021[m
 Non-trainable params: 0[m
 _________________________________________________________________[m

[0m[34m## modified /cells/9/source:[0m
[36m@@ -1,10 +1,8 @@[m
[32m+[m[32m# for this model, tried including all dense layers as without the .add method[m
…
[31m-      mnist_nn.add(Dense(10, activation='sigmoid',name="Output"))
[31m-      
[31m-      mnist_nn.compile(loss='categorical_crossentropy', optimizer='adam', metrics=['accuracy'])
[31m-      mnist_nn.summary()
[31m-    outputs:
[31m-      output 0:
[31m-        output_type: stream
[31m-        name: stdout
[31m-        text:
[31m-          Model: "mnistmodel"
[31m-          _________________________________________________________________
[31m-          Layer (type)                 Output Shape              Param #   
[31m-          =================================================================
[31m-          dense_11 (Dense)             (None, 98)                76930     
[31m-          _________________________________________________________________
[31m-          dense_12 (Dense)             (None, 64)                6336      
[31m-          _________________________________________________________________
[31m-          dense_13 (Dense)             (None, 64)                4160      
[31m-          _________________________________________________________________
[31m-          dense_14 (Dense)             (None, 32)                2080      
[31m-          _________________________________________________________________
[31m-          dense_15 (Dense)             (None, 32)                1056      
[31m-          _________________________________________________________________
[31m-          dense_16 (Dense)             (None, 32)                1056      
[31m-          _________________________________________________________________
[31m-          Output (Dense)               (None, 10)                330       
[31m-          =================================================================
[31m-          Total params: 91,948
[31m-          Trainable params: 91,948
[31m-          Non-trainable params: 0
[31m-          _________________________________________________________________
[31m-  code cell:
[31m-    execution_count: 24
[31m-    source:
[31m-      mnist_run = mnist_nn.fit(x_train, y_train, epochs=1000, batch_size=500, validation_split=.1,  verbose=False)
…
